Wavespace(
  (encoder): Encoder(
    (net): Sequential(
      (0): Conv1d(1, 16, kernel_size=(5,), stride=(4,))
      (1): LeakyReLU(negative_slope=0.2)
      (2): BatchNorm1d(16, eps=1e-05, momentum=0.1, affine=True, track_running_stats=True)
      (3): Conv1d(16, 32, kernel_size=(5,), stride=(4,))
      (4): LeakyReLU(negative_slope=0.2)
      (5): BatchNorm1d(32, eps=1e-05, momentum=0.1, affine=True, track_running_stats=True)
      (6): Conv1d(32, 64, kernel_size=(8,), stride=(4,))
      (7): LeakyReLU(negative_slope=0.2)
      (8): BatchNorm1d(64, eps=1e-05, momentum=0.1, affine=True, track_running_stats=True)
      (9): Conv1d(64, 128, kernel_size=(8,), stride=(4,))
      (10): LeakyReLU(negative_slope=0.2)
      (11): BatchNorm1d(128, eps=1e-05, momentum=0.1, affine=True, track_running_stats=True)
      (12): Conv1d(128, 256, kernel_size=(4,), stride=(2,))
      (13): LeakyReLU(negative_slope=0.2)
      (14): BatchNorm1d(256, eps=1e-05, momentum=0.1, affine=True, track_running_stats=True)
      (15): Conv1d(256, 512, kernel_size=(2,), stride=(2,))
      (16): LeakyReLU(negative_slope=0.2)
      (17): BatchNorm1d(512, eps=1e-05, momentum=0.1, affine=True, track_running_stats=True)
    )
    (linear): Sequential(
      (0): Linear(in_features=512, out_features=72, bias=True)
      (1): LeakyReLU(negative_slope=0.2)
    )
  )
  (decoder): Decoder(
    (linear): Sequential(
      (0): Linear(in_features=40, out_features=512, bias=True)
      (1): LeakyReLU(negative_slope=0.2)
    )
    (amp_dense): Sequential(
      (0): Conv1d(8, 1, kernel_size=(2,), stride=(2,))
      (1): LeakyReLU(negative_slope=0.2)
    )
    (phase_dense): Sequential(
      (0): Conv1d(8, 1, kernel_size=(2,), stride=(2,))
      (1): Tanh()
    )
    (net): Sequential(
      (0): UpSampleBlock(
        (net): Sequential(
          (0): LeakyReLU(negative_slope=0.2)
          (1): TrConv1d(512, 256, kernel_size=(4,), stride=(2,))
        )
      )
      (1): ResBlock(
        (net): Sequential(
          (0): LeakyReLU(negative_slope=0.2)
          (1): Conv1d(256, 256, kernel_size=(1,), stride=(1,))
        )
      )
      (2): ResBlock(
        (net): Sequential(
          (0): LeakyReLU(negative_slope=0.2)
          (1): Conv1d(256, 256, kernel_size=(1,), stride=(1,))
        )
      )
      (3): ResBlock(
        (net): Sequential(
          (0): LeakyReLU(negative_slope=0.2)
          (1): Conv1d(256, 256, kernel_size=(1,), stride=(1,))
        )
      )
      (4): UpSampleBlock(
        (net): Sequential(
          (0): LeakyReLU(negative_slope=0.2)
          (1): TrConv1d(256, 128, kernel_size=(8,), stride=(3,))
        )
      )
      (5): ResBlock(
        (net): Sequential(
          (0): LeakyReLU(negative_slope=0.2)
          (1): Conv1d(128, 128, kernel_size=(1,), stride=(1,))
        )
      )
      (6): ResBlock(
        (net): Sequential(
          (0): LeakyReLU(negative_slope=0.2)
          (1): Conv1d(128, 128, kernel_size=(1,), stride=(1,))
        )
      )
      (7): ResBlock(
        (net): Sequential(
          (0): LeakyReLU(negative_slope=0.2)
          (1): Conv1d(128, 128, kernel_size=(1,), stride=(1,))
        )
      )
      (8): UpSampleBlock(
        (net): Sequential(
          (0): LeakyReLU(negative_slope=0.2)
          (1): TrConv1d(128, 64, kernel_size=(8,), stride=(3,))
        )
      )
      (9): ResBlock(
        (net): Sequential(
          (0): LeakyReLU(negative_slope=0.2)
          (1): Conv1d(64, 64, kernel_size=(1,), stride=(1,))
        )
      )
      (10): ResBlock(
        (net): Sequential(
          (0): LeakyReLU(negative_slope=0.2)
          (1): Conv1d(64, 64, kernel_size=(1,), stride=(1,))
        )
      )
      (11): ResBlock(
        (net): Sequential(
          (0): LeakyReLU(negative_slope=0.2)
          (1): Conv1d(64, 64, kernel_size=(1,), stride=(1,))
        )
      )
      (12): UpSampleBlock(
        (net): Sequential(
          (0): LeakyReLU(negative_slope=0.2)
          (1): TrConv1d(64, 32, kernel_size=(5,), stride=(3,))
        )
      )
      (13): ResBlock(
        (net): Sequential(
          (0): LeakyReLU(negative_slope=0.2)
          (1): Conv1d(32, 32, kernel_size=(1,), stride=(1,))
        )
      )
      (14): ResBlock(
        (net): Sequential(
          (0): LeakyReLU(negative_slope=0.2)
          (1): Conv1d(32, 32, kernel_size=(1,), stride=(1,))
        )
      )
      (15): ResBlock(
        (net): Sequential(
          (0): LeakyReLU(negative_slope=0.2)
          (1): Conv1d(32, 32, kernel_size=(1,), stride=(1,))
        )
      )
      (16): UpSampleBlock(
        (net): Sequential(
          (0): LeakyReLU(negative_slope=0.2)
          (1): TrConv1d(32, 16, kernel_size=(5,), stride=(3,))
        )
      )
      (17): ResBlock(
        (net): Sequential(
          (0): LeakyReLU(negative_slope=0.2)
          (1): Conv1d(16, 16, kernel_size=(1,), stride=(1,))
        )
      )
      (18): ResBlock(
        (net): Sequential(
          (0): LeakyReLU(negative_slope=0.2)
          (1): Conv1d(16, 16, kernel_size=(1,), stride=(1,))
        )
      )
      (19): ResBlock(
        (net): Sequential(
          (0): LeakyReLU(negative_slope=0.2)
          (1): Conv1d(16, 16, kernel_size=(1,), stride=(1,))
        )
      )
      (20): UpSampleBlock(
        (net): Sequential(
          (0): LeakyReLU(negative_slope=0.2)
          (1): TrConv1d(16, 8, kernel_size=(2,), stride=(2,))
        )
      )
      (21): ResBlock(
        (net): Sequential(
          (0): LeakyReLU(negative_slope=0.2)
          (1): Conv1d(8, 8, kernel_size=(1,), stride=(1,))
        )
      )
      (22): ResBlock(
        (net): Sequential(
          (0): LeakyReLU(negative_slope=0.2)
          (1): Conv1d(8, 8, kernel_size=(1,), stride=(1,))
        )
      )
      (23): ResBlock(
        (net): Sequential(
          (0): LeakyReLU(negative_slope=0.2)
          (1): Conv1d(8, 8, kernel_size=(1,), stride=(1,))
        )
      )
    )
  )
)
Epoch 0:   0%|                                                                                                                    | 0/71 [00:00<?, ?it/s]
GPU available: True (cuda), used: True
TPU available: False, using: 0 TPU cores
IPU available: False, using: 0 IPUs
HPU available: False, using: 0 HPUs
/usr/local/lib/python3.8/di
…
